Data Analysis3/model.tflite (tflite, 3124 bytes, 4 tensors)

sequential_3/dense/BiasAdd/ReadVariableOp f4 [5]
0	0x42771ee5	61.78017
1	0x427725d0	61.786926
2	0x42768c2b	61.636883
3	0xbc3b70e2	-0.011440488
4	0x42779611	61.89655

sequential_3/dense/MatMul f4 [5, 66]
0	0x427d99a1	63.40003
1	0x4255191a	53.274513
2	0x426d8b91	59.386295
3	0x416460ec	14.273663
4	0x41de64e9	27.799273
5	0x42843bc2	66.116714
6	0x42791095	62.266193
7	0x428463a0	66.19458
8	0x424f157b	51.770977
9	0x42074d12	33.825264
10	0x4284d454	66.4147
11	0x4282fad8	65.48993
12	0x42864432	67.133194
13	0x4266afbd	57.67162
14	0x421f32bc	39.799545
15	0x427385d8	60.880707
16	0x428269de	65.20677
17	0x425ae2d0	54.721497
18	0x421315cc	36.771286
19	0x42863a78	67.1142
20	0x4263b086	56.922386
21	0x42264518	41.567474
22	0x424ee3d8	51.722504
23	0x42055a13	33.337963
24	0x41ef21e6	29.891552
25	0x4285b95c	66.86203
26	0x4277488a	61.82084
27	0x4282e48b	65.44637
28	0x420b0c70	34.762146
29	0x42096e78	34.35788
30	0x427ede7e	63.717278
31	0x426ae923	58.727673
32	0x4275f862	61.49256
33	0x42296f7d	42.358875
34	0x421f69db	39.853374
35	0x42558e4a	53.388954
36	0x4260da65	56.213276
37	0x4219c13b	38.4387
38	0x420e3f4a	35.561806
39	0x426cd95f	59.212276
40	0x4223c2ac	40.94011
41	0x4221c9fe	40.447258
42	0x416317d2	14.1933155
43	0x41b8a6ab	23.08138
44	0x41ddce93	27.725866
45	0x41e5f44e	28.74429
46	0x4191ef58	18.241867
47	0xc0ed26b0	-7.4109726
48	0x4133ecf1	11.245347
49	0x41a3fad4	20.497475
50	0x3d0eb781	0.03484297
51	0x40b5121f	5.658462
52	0x3ef3229a	0.47487336
53	0x418bc05a	17.468922
54	0x3eacc9c3	0.33747682
55	0xc16bc6eb	-14.736064
56	0x421b3ade	38.807487
57	0x40986827	4.762714
58	0x41a2f327	20.368727
59	0x41b9c007	23.218763
60	0xc0b22269	-5.5667005
61	0x41aa76f0	21.308075
62	0xc09ae96f	-4.8409953
63	0x41d08c1b	26.06841
64	0xbfd3471d	-1.6506077
65	0x4184daa0	16.60675
66	0x427e0b6c	63.511154
67	0x4255be17	53.435635
68	0x426c9055	59.14095
69	0x41674a5c	14.455654
70	0x41de8bc4	27.818245
71	0x4284b927	66.361626
72	0x4279463d	62.318592
73	0x428494c3	66.29055
74	0x424ebe1c	51.685654
75	0x4206a2ce	33.65899
76	0x42844920	66.14282
77	0x4282ff24	65.49832
78	0x4286a4f0	67.32214
79	0x42677201	57.861332
80	0x421e3d58	39.559906
81	0x4273180b	60.77348
82	0x4281b17c	64.84665
83	0x425b516d	54.829517
84	0x42132c30	36.79315
85	0x428593fd	66.78904
86	0x42636135	56.84493
87	0x4226610e	41.59478
88	0x424ef6f5	51.74117
89	0x420577cc	33.36699
90	0x41ee8166	29.813183
91	0x428609f3	67.01943
92	0x4276f6d2	61.741035
93	0x4282d79b	65.421104
94	0x4209ef0a	34.483437
95	0x4209fcd9	34.49692
96	0x427de4a6	63.47329
97	0x426a7cc1	58.62183
98	0x42765d39	61.591038
99	0x422a5865	42.586323
100	0x4220dc3f	40.215084
101	0x42547be2	53.12098
102	0x426166eb	56.350506
103	0x4219b9e6	38.43154
104	0x420d0e2e	35.263847
105	0x426e8cff	59.63769
106	0x42220c6b	40.512127
107	0x42213d2e	40.309746
108	0x4166126a	14.379496
109	0x41bb40d0	23.406647
110	0x41dd489c	27.660454
111	0x41e607ba	28.753773
112	0x4194a13c	18.578728
113	0xc0e37492	-7.10798
114	0x4135d859	11.365319
115	0x41a59a5f	20.700377
116	0xbe893f77	-0.26806232
117	0x40b6df28	5.7147408
118	0x3f09c932	0.53822625
119	0x418b4404	17.40821
120	0x3eb1fb7f	0.3476219
121	0xc1687938	-14.529594
122	0x421b5e4b	38.842083
123	0x40933cbc	4.601164
124	0x41a2e0f0	20.359833
125	0x41b82a66	23.020702
126	0xc0b4b046	-5.6465178
127	0x41ad23f9	21.642565
128	0xc08c3681	-4.3816533
129	0x41d08066	26.062695
130	0xc00945bf	-2.144882
131	0x41872c2d	16.89657
132	0x427e0930	63.508972
133	0x42552e23	53.295055
134	0x426e14aa	59.52018
135	0x416306b6	14.189138
136	0x41db0634	27.378029
137	0x4284044e	66.00841
138	0x427984fb	62.379864
139	0x4284327e	66.09862
140	0x424dbb14	51.432693
141	0x4205ace7	33.41885
142	0x4284a4a3	66.321556
143	0x4282f331	65.47498
144	0x4285c6b6	66.88811
145	0x4267141e	57.769646
146	0x421f5290	39.830627
147	0x42735819	60.836033
148	0x4281bf36	64.87346
149	0x425b820c	54.877
150	0x4212a457	36.66049
151	0x4285d2b7	66.91155
152	0x4261f5a9	56.489902
153	0x4224936c	41.143967
154	0x424ebfa1	51.687138
155	0x4206d37a	33.70652
156	0x41ef7bae	29.93539
157	0x42851ffc	66.56247
158	0x4275ff28	61.499176
159	0x4282904e	65.281845
160	0x4208f199	34.235935
161	0x42082750	34.03839
162	0x427d15af	63.271175
163	0x4269a1cc	58.408005
164	0x4276379f	61.554317
165	0x4229eceb	42.481365
166	0x421fe056	39.969078
167	0x4254804e	53.125298
168	0x4260d6b4	56.20967
169	0x421988fc	38.383774
170	0x420cd286	35.20559
171	0x426cd5b6	59.208702
172	0x4221ab80	40.41748
173	0x4220b645	40.177998
174	0x41659a88	14.350227
175	0x41b88550	23.065094
176	0x41da2b1f	27.271055
177	0x41e41ed4	28.515053
178	0x41958481	18.6897
179	0xc0e62484	-7.1919575
180	0x4133ee5b	11.245692
181	0x41a3a44a	20.45522
182	0xbda84e80	-0.08218098
183	0x40b0637b	5.5121436
184	0x3da49e7e	0.080380425
185	0x418be1f9	17.485338
186	0x3f015b30	0.50529766
187	0xc16b4863	-14.705173
188	0x421b3d01	38.809574
189	0x409ec156	4.9611006
190	0x419fd94b	19.9811
191	0x41b9e01a	23.234425
192	0xc0b203d7	-5.5629687
193	0x41aac478	21.345932
194	0xc090ec6d	-4.5288606
195	0x41d1ea1b	26.23931
196	0xbfe50317	-1.7891568
197	0x41888542	17.065067
198	0x3e19fda5	0.15038164
199	0xbe3d43cc	-0.18482894
200	0xbd0cd5e8	-0.034383684
201	0xbd542887	-0.051796462
202	0x3dbc3da4	0.091914445
203	0xbe80a7dc	-0.25128067
204	0xbded36d0	-0.1158272
205	0x3e8b7b09	0.27242306
206	0x3df59b8f	0.11992561
207	0x3db81a78	0.089894235
208	0xbe846266	-0.25856322
209	0xbdba5a76	-0.09099285
210	0x3e5420a9	0.20715584
211	0x3d5312f9	0.051531766
212	0x3d06f910	0.03295237
213	0xbe87c030	-0.26513815
214	0xbdecc72e	-0.11561428
215	0x3ddab1c4	0.10678437
216	0x3db0cc5c	0.086327285
217	0x3e08c3bb	0.13355915
218	0xbd2b3d67	-0.041806605
219	0xbe7a6997	-0.24454342
220	0x3e8240d5	0.25440088
221	0x3e89b2c7	0.2689421
222	0x3d575780	0.05257368
223	0xbe1fd79c	-0.15609592
224	0xbe6c678f	-0.2308638
225	0x3cc5fb21	0.0241676
226	0xbe82a7d8	-0.2551868
227	0xbe1b34c0	-0.15156841
228	0xbe88c3b2	-0.26711804
229	0x3e7ea682	0.24868205
230	0xbdf0b3ee	-0.11753069
231	0x3d8d1736	0.06889193
232	0x3d62e1a0	0.055390954
233	0xbdf7c4ba	-0.120980695
234	0xbc1c3520	-0.00953415
235	0xbd4a8788	-0.04944566
236	0xbddd8b8a	-0.108176306
237	0x3e509235	0.20368274
238	0x3e180dc3	0.14849
239	0x3e80e067	0.25171205
240	0xbe0819e0	-0.1329112
241	0x3d2d4728	0.042304188
242	0x3e1f1ed6	0.15539107
243	0xbe389f65	-0.18029554
244	0x3e4fe022	0.20300344
245	0x3c915bc0	0.017743945
246	0xbe8aff7e	-0.2714805
247	0xbe8ae178	-0.27125144
248	0xbd7cac14	-0.061687544
249	0xbe19c01c	-0.1501469
250	0x3e2b8520	0.16750002
251	0x3d049dd0	0.032377064
252	0xbd810888	-0.06300455
253	0x3df0cfac	0.1175836
254	0x3e0af634	0.13570482
255	0x3e4f5582	0.20247462

sequential_3/dense_1/MatMul f4 [3, 5]
0	0xc208370f	-34.05377
1	0xc2096882	-34.35206
2	0xc207cefe	-33.95214
3	0x3db00ada	0.0859582
4	0xc2086f70	-34.108826
5	0x4208c914	34.196365
6	0x42078fdd	33.89049
7	0x42095dda	34.341652
8	0xbf11c2ec	-0.5693805
9	0x4205b59c	33.427353
10	0x42082565	34.03652
11	0x42053189	33.298374
12	0x42098138	34.37619
13	0xbf1f27a3	-0.62169856
14	0x42065696	33.584557

sequential_3/dense_2/MatMul f4 [1, 3]
0	0xc207f53e	-33.989494
1	0x42098261	34.377323
2	0x420881aa	34.126625
